Cart_pole_model.pth (torch, 7063 bytes, 6 tensors)

layers.0.weight f4 [32, 4]
0.3359852 0.31163186 0.28583795 0.20772256 -0.27571845 -0.14323108 -1.1034354 -0.17278695
-0.042461712 0.0526237 0.67725974 0.14514136 0.2965806 -0.15078211 -1.0259578 -0.12176823
-0.1265439 0.085163206 0.81794965 0.41503882 -0.30674428 -0.37818643 -0.49499705 -0.23900846
-0.30858713 0.63799775 0.4766537 0.29456362 -0.23957373 -0.09317746 -1.873502 -0.24208316
0.053171255 -0.1282577 -0.1322023 0.035020478 0.45402014 0.23650728 0.6347937 0.17538747
-0.1007219 0.020755503 1.3741877 0.23364818 -0.31209627 -0.07273215 1.0360662 0.05881736
0.021420624 -0.18559252 -0.12868573 -0.11304399 -0.26878878 0.49270168 1.9233118 0.44543156
-0.21777928 -0.17632303 -1.7912449 -0.19362009 0.33638683 0.3989542 1.3382488 0.28623173
-0.055034176 -0.009824774 -0.08608841 0.1678038 -0.23441818 0.40776473 0.47466823 0.08112118
-0.01760905 0.08243104 0.0529856 -0.14949676 0.17263402 0.101894125 -1.2101252 0.035723217
-0.096751295 0.27438024 0.5542653 0.0060319756 -0.17305832 0.06359364 0.64415526 -0.0678179
-0.00638089 -0.12227849 -0.1063024 -0.08240637 0.01732541 -0.028620787 0.31861994 -0.14654313
0.3079581 0.053681698 1.3296635 0.058927637 -0.2653901 0.28197312 -0.45068666 0.16574083
-0.036554497 -0.10567997 0.100808635 0.17281753 0.19179592 -0.15930563 -0.40973318 -0.109702334
-0.45146304 -0.33579552 0.5162676 -0.18032062 -0.19022936 0.03706366 1.5815169 0.08360895
-0.20465446 0.34043112 1.9711593 0.5259489 -0.013352052 0.10121161 0.053700432 0.24610417
00000000: 4106 ac3e 368e 9f3e 5a59 923e 39b5 543e
00000010: f82a 8dbe 2bab 12be 5f3d 8dbf 10ef 30be
00000020: 55ec 2dbd f38b 573d e560 2d3f f09f 143e
00000030: 6ad9 973e a066 1abe 9652 83bf 9f61 f9bd
00000040: b994 01be 0c6a ae3d 2665 513f f87f d43e
00000050: 960d 9dbe a7a1 c1be 4170 fdbe a2be 74be
00000060: 22ff 9dbe d253 233f f40b f43e 0bd1 963e
00000070: d152 75be d3d3 bebd eace efbf a6e4 77be
00000080: 1aca 593d fd55 03be 0a60 07be a271 0f3d
00000090: 5475 e83e f72e 723e d781 223f c698 333e
000000a0: 4947 cebd 7207 aa3c 62e5 af3f 7841 6f3e
000000b0: 15cb 9fbe 98f4 94bd d19d 843f 79ea 703d
000000c0: 4e7a af3c f70b 3ebe 31c6 03be 9c83 e7bd
000000d0: af9e 89be 6543 fc3e 152f f63f 9b0f e43e
000000e0: 8801 5fbe 068e 34be 8347 e5bf 5844 46be
000000f0: e53a ac3e ba43 cc3e bd4b ab3f f78c 923e
00000100: 846b 61bd 17f8 20bc 1f4f b0bd c2d4 2b3e
00000110: 520b 70be 8ac6 d03e b707 f33e dc22 a63d
00000120: db40 90bc 9bd1 a83d 6e07 593d ae15 19be
00000130: f9c6 303e dead d03d 62e5 9abf 8252 123d
00000140: 8b25 c6bd 917b 8c3e 55e4 0d3f e1a7 c53b
00000150: 3336 31be 623d 823d 5ce7 243f 1ce4 8abd
00000160: c916 d1bb 256d fabd 13b5 d9bd acc4 a8bd
00000170: 05ee 8d3c 2476 eabc 2722 a33e 670f 16be
00000180: afac 9d3e 57e1 5b3d 6a32 aa3f 1b5e 713d
00000190: 36e1 87be c85e 903e 67c0 e6be f7b7 293e
000001a0: 2bba 15bd bd6e d8bd c274 ce3d 14f7 303e
000001b0: 2666 443e 0421 23be 8cc8 d1be 9eab e0bd
000001c0: 2a26 e7be 64ed abbe 1d2a 043f f8a5 38be
000001d0: 7ccb 42be 10d0 173d 256f ca3f 2b3b ab3d
000001e0: f090 51be fd4c ae3e f34e fc3f 96a4 063f
000001f0: 91c2 5abc 0848 cf3d fcf4 5b3d bb02 7c3e

layers.0.bias f4 [32]
-0.5279894 -0.54446536 0.46587497 -0.26923567 -0.025357746 -0.6203947 -0.07524866 -0.3680773
0.58472055 -0.34069318 -0.34032562 -0.48069835 0.7716119 0.06809028 -0.059575498 -0.4928417
0.6221875 0.20240417 0.81590784 -0.22791554 0.3567766 0.60951376 0.7073902 0.588811
-0.37968844 -0.013045041 0.7699539 0.71045005 -0.43502936 -0.27340734 0.27667186 0.6468969
00000000: 502a 07bf 1562 0bbf 2a87 ee3e 42d9 89be
00000010: 0cbb cfbc 30d2 1ebf f81b 9abd a174 bcbe
00000020: 3fb0 153f 566f aebe 293f aebe 181e f6be
00000030: 5c88 453f eb72 8b3d 7005 74bd bf55 fcbe
00000040: ae47 1f3f 0a43 4f3e 56df 503f b162 69be
00000050: 6cab b63e 1809 1c3f 8617 353f 51bc 163f
00000060: 8666 c2be deba 55bc b31b 453f 0ee0 353f
00000070: 2bbc debe 0cfc 8bbe efa7 8d3e 099b 253f

layers.2.weight f4 [32, 32]
-0.38927945 0.92870605 -0.050791513 -0.194454 0.47361046 0.4573278 0.21134791 0.7618481
-0.07241279 -0.13184462 1.1099637 1.1494701 -0.099116616 0.12602137 0.68875295 0.36815023
-0.053298052 -0.3939532 -0.22472116 -0.048210155 -0.1732885 0.24660748 -0.1602632 -0.04433492
0.35660842 0.16017835 0.009803446 -0.60141903 1.0153791 0.9134605 -0.083824545 -0.19698523
-1.3879721 -1.4814947 0.29489315 -1.061054 0.09695217 -0.4561342 0.43047217 -1.0563211
0.5116127 -0.75254196 -1.3898585 -0.82703745 0.5551863 -0.21168084 -0.3592815 -1.0691838
0.4602839 0.3747174 0.44896796 -0.38513336 0.4119832 0.4853401 0.5110712 0.49874806
-1.1038377 0.003747271 0.5561821 0.37028188 -0.6898602 -1.2366108 0.08322613 0.46574968
-1.1203412 -1.2263162 0.38128367 -1.4689361 0.039321713 -0.8422892 0.28991774 -1.3894832
0.28096998 -0.44852367 -1.4498059 -0.5440704 0.45003235 0.14906478 -0.57658786 -0.86344635
0.5341023 0.19975755 0.5423983 -0.4794314 0.433139 0.47021887 0.37407508 0.4849958
-1.2020401 -0.019987931 0.5830332 0.30154416 -0.6921494 -0.98717064 0.30932447 0.494722
-1.3217568 -1.6532335 0.4022175 -1.3840346 0.0074215946 -0.6782871 0.17960362 -1.5988609
0.35212985 -0.72103655 -1.4221091 -0.56605047 0.4398115 0.0829766 -0.5133451 -0.940784
0.54744256 0.27384835 0.5883299 -0.57172257 0.33586782 0.5633243 0.458791 0.42104834
-1.1993073 0.009317514 0.55937463 0.28902978 -0.7031896 -1.1157593 0.2848984 0.47103772
0.005399609 0.022982797 -0.044338036 0.010966121 0.011513827 -0.0070315334 -0.004053766 -0.03859203
-0.04576658 0.037049055 -0.04495437 -0.07261967 -0.051099937 -0.07558318 -0.021093056 0.03411962
-0.04502893 0.058828443 0.0097444365 -0.026548909 -0.051665694 -0.06358159 0.01719275 -0.01980468
0.0011215723 0.027403908 0.03286461 -0.076140165 -0.060424305 -0.024429692 -0.0583754 -0.051730346
-1.308227 -1.5302056 0.35343432 -1.2850575 0.13549514 -0.70789987 0.31215852 -1.535714
0.34348923 -0.62198323 -1.4121906 -0.604158 0.48318928 0.112961754 -0.54942906 -0.98997223
0.39085913 0.21836135 0.4601161 -0.5662064 0.46364552 0.43539223 0.51229876 0.37797967
-1.1118622 0.06480634 0.51444775 0.3686011 -0.6465642 -1.07265 0.2924321 0.5031431
-1.3708818 -1.3739396 0.22425914 -0.24241778 -0.3076208 -0.7973084 -0.56460786 -0.92511845
0.5252661 -0.6215156 -1.7305262 -1.1492612 0.654091 -0.66721857 -0.36096156 -1.3223871
0.4650397 -0.0097096525 0.49561748 -0.4020579 0.08672642 0.3266131 0.643409 0.45009795
-0.9040456 0.112988405 0.5585367 0.6510948 -0.8267285 -1.7223452 -0.7971425 0.37699214
-1.2827508 -1.23815 0.26017472 -0.9173844 0.0030888303 -0.82165885 -0.10335898 -1.2799649
0.37716597 -0.47257805 -1.560951 -0.7411385 0.4381812 -0.2199631 -0.6147879 -1.0721649
0.41484222 0.06438449 0.4160595 -0.35843024 0.26236463 0.48805082 0.4457802 0.4916396
-1.0611649 0.07718744 0.5232745 0.4837942 -0.8119936 -1.2556195 -0.22339357 0.38085845
00000000: a34f c7be aebf 6d3f c30a 50bd f31e 47be
00000010: 127d f23e df26 ea3e 966b 583e 7a08 433f
00000020: 284d 94bd 4702 07be 4a13 8e3f d621 933f
00000030: a7fd cabd bf0b 013e 1d52 303f 307e bc3e
00000040: 0f4f 5abd 3cb4 c9be 4e1d 66be 0378 45bd
00000050: 8a72 31be ac86 7c3e 091c 24be 8898 35bd
00000060: 6195 b63e cb05 243e a29e 203c 99f6 19bf
00000070: f1f7 813f 8cd8 693f 34ac abbd 7fb6 49be
00000080: 12a9 b1bf 9ea1 bdbf 3cfc 963e 9ed0 87bf
00000090: dc8e c63d 6c8a e9be d966 dc3e 8835 87bf
000000a0: 0df9 023f 97a6 40bf e2e6 b1bf bab8 53bf
000000b0: b020 0e3f ddc2 58be bff3 b7be 04db 88bf
000000c0: 55aa eb3e f6da bf3e 21df e53e 3330 c5be
000000d0: 76ef d23e 7f7e f83e 90d5 023f e85b ff3e
000000e0: 8e4a 8dbf c694 753b f361 0e3f 9695 bd3e
000000f0: ae9a 30bf 4349 9ebf 7672 aa3d be76 ee3e
00000100: 5767 8fbf eef7 9cbf 9d37 c33e 1906 bcbf
00000110: ce0f 213d 44a0 57bf 1970 943e 96da b1bf
00000120: 4cdb 8f3e e5a4 e5be 3d93 b9bf 3348 0bbf
00000130: a46a e63e 70a4 183e 439b 13bf d20a 5dbf
00000140: eeba 083f 3e8d 4c3e 9dda 0a3f 0878 f5be
00000150: 65c4 dd3e 87c0 f03e c586 bf3e 5f51 f83e
00000160: 73dc 99bf bbbd a3bc aa41 153f ff63 9a3e
00000170: b430 31bf 37b7 7cbf c75f 9e3e 344c fd3e
00000180: 542f a9bf 289d d3bf 74ef cd3e 0c28 b1bf
00000190: d930 f33b 39a4 2dbf 03ea 373e 79a7 ccbf
000001a0: 5d4a b43e da95 38bf ac07 b6bf afe8 10bf
000001b0: f92e e13e a3ef a93d 966a 03bf 38d7 70bf
000001c0: 3225 0c3f da35 8c3e ca9c 163f 695c 12bf
000001d0: def6 ab3e 0536 103f a7e6 ea3e a693 d73e
000001e0: e782 99bf 7ca8 183c 2d33 0f3f b6fb 933e
000001f0: 3c04 34bf 33d1 8ebf 34de 913e db2b f13e
00000200: 34ef b03b 6b46 bc3c cd9b 35bd 3fab 333c
00000210: 7ea4 3c3c c768 e6bb 74d5 84bb ad12 1ebd
00000220: bd75 3bbd c0c0 173d 1322 38bd 9fb9 94bd
00000230: 2b4e 51bd 5bcb 9abd 58cb acbc 04c1 0b3d
00000240: 4170 38bd 18f6 703d 21a7 1f3c 197d d9bc
00000250: 689f 53bd 1137 82bd cfd7 8c3c 6d3d a2bc
00000260: b901 933a 297e e03c 0b9d 063d 60ef 9bbd
00000270: 7a7f 77bd c720 c8bc 0b1b 6fbd 33e3 53bd
00000280: fb73 a7bf c7dd c3bf 58f5 b43e c47c a4bf
00000290: 3dbf 0a3e ed38 35bf 3ed3 9f3e 4792 c4bf
000002a0: d2dd af3e 4b3a 1fbf a9c2 b4bf 19aa 1abf
000002b0: 9664 f73e 7e58 e73d 62a7 0cbf d26e 7dbf
000002c0: b01e c83e 1e9a 5f3e 5694 eb3e e7f2 10bf
000002d0: f262 ed3e bbeb de3e 0326 033f 8d86 c13e
000002e0: 8051 8ebf 30b9 843d d9b2 033f 49b9 bc3e
000002f0: 3b85 25bf 984c 89bf a9b9 953e fccd 003f
00000300: 0e79 afbf 41dd afbf 30a4 653e 5e3c 78be
00000310: 7980 9dbe 671c 4cbf 248a 10bf 90d4 6cbf
00000320: d777 063f a51b 1fbf e281 ddbf fe1a 93bf
00000330: 8272 273f d6ce 2abf f4cf b8be fb43 a9bf
00000340: af19 ee3e 3c15 1fbc 93c1 fd3e 88da cdbe
00000350: 9f9d b13d d539 a73e 74b6 243f 3d73 e63e
00000360: 886f 67bf 7766 e73d 43fc 0e3f 26ae 263f
00000370: 7ba4 53bf cf75 dcbf 8811 4cbf 1d05 c13e
00000380: 2e31 a4bf b37b 9ebf 9f35 853e b4d9 6abf
00000390: f96d 4a3b 3c58 52bf dfad d3bd e4d5 a3bf
000003a0: e61b c13e c0f5 f1be 3ecd c7bf 41bb 3dbf
000003b0: 4959 e03e 023e 61be bd62 1dbf b33c 89bf
000003c0: 3366 d43e 04dc 833d c005 d53e 2b84 b7be
000003d0: a854 863e cce1 f93e 4d3d e43e 30b8 fb3e
000003e0: 40d4 87bf 7314 9e3d 51f5 053f e0b3 f73e
000003f0: d0de 4fbf 24b8 a0bf 49c1 64be e1ff c23e

layers.2.bias f4 [32]
-0.10806016 0.61484736 0.5699636 0.60192204 -0.08718155 0.5837794 0.51814574 0.5803176
-0.010327997 -0.055165503 0.6707998 -0.06375212 -0.006772342 -0.034436505 0.6270747 -0.22878444
0.5620279 -0.048489794 0.60348785 0.030746548 0.005263303 -0.11335681 -0.02372755 0.41467598
-0.12123644 0.024113093 0.57628274 0.5222734 -0.035908997 0.55799603 0.6583892 0.034070328
00000000: a54e ddbd a366 1d3f 22e9 113f 9017 1a3f
00000010: 3e8c b2bd 9172 153f 33a5 043f b28f 143f
00000020: c236 29bc 39f5 61bd 89b9 2b3f 7990 82bd
00000030: 86ea ddbb 4b0d 0dbd f887 203f 7846 6abe
00000040: 0fe1 0f3f 3c9d 46bd 2e7e 1a3f 2fe0 fb3c
00000050: c977 ac3b 9d27 e8bd 4760 c2bc 6950 d43e
00000060: d04a f8bd d288 c53c 4487 133f b6b3 053f
00000070: 5015 13bd d4d8 0e3f 328c 283f 548d 0b3d

layers.4.weight f4 [2, 32]
-0.63106775 1.0178494 0.7544217 0.9277451 0.021731507 0.9029534 1.3650502 0.984869
-0.027651843 -0.3541798 1.5087914 0.005147669 -0.06426743 0.007881607 0.94433737 -1.6191026
1.019647 -0.015098302 1.0177275 -0.056808613 -0.0029092936 -2.0016866 -0.06598675 0.9695691
0.1274281 -0.052097805 1.1919051 1.0460991 0.012340663 1.43218 1.310712 -0.035188645
-2.0548139 0.96412665 1.0190201 1.1644803 0.04215467 1.1276748 1.2684739 1.1594368
-0.022648571 -0.99730825 0.83599573 -0.020812118 0.023224158 -0.07649511 1.1637584 -0.8528432
1.0870883 0.002304159 1.1448784 0.03251207 2.0858643e-05 -1.8626475 0.018670626 0.3764372
0.050504845 0.010258664 1.3602842 1.1212991 0.04015996 1.4210737 1.1464988 -0.011245704
00000000: a88d 21bf e448 823f c821 413f b480 6d3f
00000010: 4606 b23c f427 673f f7b9 ae3f 6020 7c3f
00000020: 1e86 e2bc 0e57 b5be 1420 c13f c7ad a83b
00000030: a49e 83bd db21 013c 18c0 713f c13e cfbf
00000040: cb83 823f de5e 77bc e544 823f 26b0 68bd
00000050: d9a9 3ebb a21b 00c0 1024 87bd ae35 783f
00000060: 837c 023e 8264 55bd 5990 983f 93e6 853f
00000070: 7e30 4a3c ad51 b73f 69c5 a73f f821 10bd
00000080: 1282 03c0 01d1 763f 406f 823f b10d 953f
00000090: 60aa 2c3d a657 903f 5a5d a23f 6d68 943f
000000a0: 7f89 b9bc 984f 7fbf d103 563f 2d7e aabc
000000b0: 9740 be3c 78a9 9cbd 09f6 943f ef53 5abf
000000c0: b625 8b3f 6001 173b 608b 923f 602b 053d
000000d0: 98f9 ae37 3c6b eebf 24f3 983c 60bc c03e
000000e0: 2bde 4e3d f513 283c cb1d ae3f bb86 8f3f
000000f0: c57e 243d bee5 b53f 79c0 923f e73f 38bc

layers.4.bias f4 [2]
0.35129663 0.37344497
00000000: 27dd b33e 2e34 bf3e
