Cart_pole_model.pth (torch, 7063 bytes, 6 tensors)

layers.0.weight f4 [32, 4]
-0.30057472 -0.4127585 -0.16905127 0.22365798 0.1632815 0.33053252 0.65949935 -0.096339196
-0.24767818 0.51853293 -0.22001423 0.32941628 -0.095712475 -0.0915121 -1.3997383 -0.37593263
-0.35242936 -0.21319908 0.043682635 -0.4153349 0.20476878 -0.05091308 -0.39713025 0.15457413
0.02165593 -0.013706141 0.36692056 -0.4241761 -0.349826 -0.41126448 -0.25775614 0.1954285
-0.031629115 -0.2633495 -0.87077177 -0.49058163 -0.027150491 -0.07987304 1.4021901 0.3104274
0.14404055 -0.16647689 -0.7987314 -0.085144185 0.23658869 -0.24232207 -0.47121716 0.15554824
0.17134069 -0.21015273 0.072265185 -0.09989987 -0.39280906 0.20240475 0.8249324 0.21914588
-0.2986193 0.09476234 0.77484757 -0.23367666 -0.01942078 0.3395908 1.4624906 0.47179753
0.50426763 -0.12203104 -1.7145265 -0.3345826 -0.14476089 0.38753667 -0.10837591 -0.2099929
0.49862126 -0.06989441 -1.3648844 -0.14602393 -0.11806539 -0.25388956 1.0919778 0.37848422
-0.34770826 -0.013577143 -0.72851086 0.1159062 -0.07634002 0.27696505 -0.040177315 -0.2487468
0.014525073 0.12880062 0.2918112 -0.46173438 0.07166148 0.13124534 -1.428921 -0.22307062
-0.3784812 -0.01325276 -0.08833273 -0.10065197 0.028484436 0.105843104 0.49825394 0.36089945
-0.28792036 -0.09801851 1.4277257 0.3749337 0.06046477 -0.53305084 -0.90940547 -0.19267157
-0.02116207 0.017363168 1.7007102 0.17494054 0.37589565 0.033632044 0.1717151 0.08056391
-0.35638693 -0.44956127 -0.23650593 0.29809585 0.46321735 0.24521828 0.4544405 0.025924971
00000000: eee4 99be 1555 d3be c71b 2dbe 9906 653e
00000010: 4433 273e 8f3b a93e f3d4 283f 7c4d c5bd
00000020: 599f 7dbe 93be 043f 694b 61be 40a9 a83e
00000030: e704 c4bd b26a bbbd a02a b3bf 3e7a c0be
00000040: 9f71 b4be dc50 5abe 90ec 323d c7a6 d4be
00000050: e8ae 513e 3c8a 50bd a854 cbbe ae48 1e3e
00000060: c767 b13c b98f 60bc 03dd bb3e 9c2d d9be
00000070: 651c b3be 4291 d2be 9df8 83be 691e 483e
00000080: 888d 01bd bfd5 86be e6ea 5ebf 842d fbbe
00000090: b56a debc 7a94 a3bd f77a b33f 57f0 9e3e
000000a0: 5e7f 133e eb78 2abe a979 4cbf 1360 aebd
000000b0: 4e44 723e 4723 78be 6043 f1be 0a48 1f3e
000000c0: ef73 2f3e 4732 57be c5ff 933d 4e98 ccbd
000000d0: 451e c9be 3143 4f3e c52e 533f c767 603e
000000e0: a1e4 98be c212 c23d 695c 463f ef48 6fbe
000000f0: 5418 9fbc d8de ad3e e432 bb3f 728f f13e
00000100: af17 013f 69eb f9bd 9b75 dbbf 694e abbe
00000110: 333c 14be 356b c63e 30f4 ddbd 6108 57be
00000120: 494b ff3e cd24 8fbd 88b4 aebf 4c87 15be
00000130: 44cc f1bd d0fd 81be eec5 8b3f afc8 c13e
00000140: d106 b2be aa72 5ebc b07f 3abf 3b60 ed3d
00000150: 2858 9cbd 5dce 8d3e f890 24bd 7bb7 7ebe
00000160: 92fa 6d3c 4fe4 033e 4768 953e 7368 ecbe
00000170: 41c3 923d 2e65 063e e2e6 b6bf a06c 64be
00000180: 4ac8 c1be 1b22 59bc cae7 b4bd 9f22 cebd
00000190: 3158 e93c 45c4 d83d 241b ff3e d0c7 b83e
000001a0: 4c6a 93be eebd c8bd b7bf b63f 4ff7 bf3e
000001b0: e8a9 773d 0576 08bf ccce 68bf b24b 45be
000001c0: 145c adbc 343d 8e3c dfb0 d93f 9d23 333e
000001d0: 6575 c03e c1c1 093d 15d6 2f3e b1fe a43d
000001e0: 5978 b6be e52c e6be 9c2e 72be 05a0 983e
000001f0: d32a ed3e 801a 7b3e 6dac e83e 9b60 d43c

layers.0.bias f4 [32]
0.037822813 0.15465714 0.30096573 -0.3349062 -0.7166511 0.7064396 0.5147634 0.45645127
-0.17916656 -0.3303148 0.6137206 0.34822565 0.25466636 0.4009776 0.15836258 -0.21821307
-0.2975006 -0.31913432 -0.21074897 -0.108988084 0.013086575 0.3226891 0.5563602 -0.10828602
-0.7235847 0.6381112 -0.38195986 0.13533525 -0.27009812 -0.6069474 0.30149347 0.4972223
00000000: 18ec 1a3d 715e 1e3e 2e18 9a3e d378 abbe
00000010: 7276 37bf 3ad9 343f 89c7 033f fbb3 e93e
00000020: 7077 37be 051f a9be cb1c 1d3f a24a b23e
00000030: a163 823e f04c cd3e cd29 223e 3f73 5fbe
00000040: 0052 98be 9365 a3be 94ce 57be 2535 dfbd
00000050: 1369 563c 8137 a53e 9f6d 0e3f 10c5 ddbd
00000060: d93c 39bf 415b 233f 3e90 c3be 5395 0a3e
00000070: 4d4a 8abe e860 1bbf 5a5d 9a3e ec93 fe3e

layers.2.weight f4 [32, 32]
0.096843265 0.13174173 0.068744324 -0.5491963 -0.23856771 0.15600185 0.015512651 0.033660334
-0.485886 -0.26385313 0.0049978145 0.06037661 -0.11056475 0.17046666 0.16243486 -0.17009006
-0.48424587 0.10861618 -0.24058743 0.19579147 -0.11625292 -0.16587529 0.05728062 -0.39444238
-0.5832268 0.19755062 0.09112414 0.075119905 -0.9692769 -0.21931675 0.18911487 0.15709984
0.0016248146 0.09848887 -0.25439173 0.60126114 0.3070203 -0.35589704 -0.14854209 0.069262534
0.18184404 0.401231 -0.3578176 -0.17949344 -0.026117181 0.090656295 0.0576499 0.87926424
0.10744224 -0.12847437 0.30312768 0.21481077 -0.034330443 -0.21708623 -0.06410116 0.1601219
0.8326548 0.07886326 0.71476066 -0.054901343 1.0838223 0.14044681 0.16224264 0.2731478
0.07776947 -0.021686884 0.15155348 -0.6141378 -0.26931036 0.33817554 0.29181316 0.07021892
0.05193358 -0.051710334 0.22341251 0.34700987 0.15171678 0.08879515 0.041043133 -0.29043487
-0.23022632 -0.18766853 -0.37650684 -0.17275716 0.01172653 0.2636838 0.3760599 -0.10018554
-0.510537 0.34789115 -0.26103547 0.07310104 -0.8020165 -0.28364483 0.13841215 0.2353619
0.041641608 0.019972654 0.21955109 -0.58085304 -0.19919357 0.10603507 0.15130301 0.16356717
-0.04144714 -0.36122575 0.14268342 0.15886511 0.15423211 0.09626441 0.1887675 -0.5237187
-0.57706594 0.0016513614 -0.5782329 -0.23023367 0.07506795 0.22272354 0.33687228 -0.32846498
-0.54041123 0.118663415 -0.5145022 0.062063865 -1.0493658 -0.23759948 0.17267524 0.16862878
0.0024407608 0.07693076 -0.06092396 -0.11140805 0.067348175 0.013079616 0.028424779 0.03514298
0.030419627 -0.04038905 0.064426735 -0.057464886 0.015968429 0.108360104 -0.18144424 -0.0319501
-0.16072458 -0.15187414 0.075922094 0.063717045 -0.02491494 -0.15221743 -0.08279562 0.07698057
0.08892158 -0.09854294 -0.07473945 -0.13800535 -0.037888154 0.008952783 -0.054222476 0.06844599
0.00079693785 0.09640756 0.2727393 -0.29147908 -0.033214733 0.23178874 0.28111562 0.19960688
0.112940505 0.008539619 0.32101524 0.14309764 0.31571037 0.011363077 0.18238097 -0.21085846
-0.07892483 -0.35667133 -0.23695752 -0.13923873 0.158977 0.2358855 0.4253238 -0.06958521
-0.35913086 0.2791189 -0.40962124 -0.013492592 -0.43160218 -0.04173275 -0.07381364 -0.06749142
-0.06691702 -0.0766649 0.012208586 0.0079156635 -0.08902537 0.01164677 0.09032616 -0.09493011
-0.08579736 -0.084100604 0.11357684 -0.045521654 -0.08160555 -0.113499895 -0.16445105 -0.02478974
0.14907055 0.06434778 -0.11887638 0.037537083 -0.12963024 0.04230634 -0.18209524 -0.13424413
-0.042591505 -0.025528166 0.08690796 0.009245872 0.0136889815 0.03536395 0.10258856 -0.008933521
-0.59050226 -0.31370732 -0.6599095 1.0703002 -0.22488023 0.038869824 0.051886454 -0.21159689
0.79738325 0.15002666 0.2862901 0.22263642 0.114827 -1.1980435 -0.61901015 -0.24320035
0.88446236 -0.3424179 0.69431216 -1.0416054 -0.13145806 -0.08108345 0.120440856 0.45387605
0.0065399976 -0.5113365 -0.025901793 0.6124878 -0.1358201 0.05306472 -0.38693723 -0.1956441
00000000: c355 c63d 4ee7 063e d3c9 8c3d 2198 0cbf
00000010: 184b 74be f3be 1f3e c628 7e3c 6bdf 093d
00000020: 0dc6 f8be c217 87be b5c4 a33b 774d 773d
00000030: c66f e2bd d08e 2e3e 5355 263e 172c 2ebe
00000040: 13ef f7be 2972 de3d 8d5c 76be 8f7d 483e
00000050: 0316 eebd 36db 29be 159f 6a3d 5af4 c9be
00000060: 5a4e 15bf b64a 4a3e 4b9f ba3d 77d8 993d
00000070: 8822 78bf 9294 60be 54a7 413e c8de 203e
00000080: bbf7 d43a 88b4 c93d a23f 82be 40ec 193f
00000090: c431 9d3e 2338 b6be 6b1b 18be 84d9 8d3d
000000a0: 5335 3a3e 266e cd3e de33 b7be 21cd 37be
000000b0: b3f3 d5bc 02aa b93d 4d22 6c3d 7617 613f
000000c0: ad0a dc3d c98e 03be 8d33 9b3e 5bf7 5b3e
000000d0: 149e 0cbd da4b 5ebe 7847 83bd fff6 233e
000000e0: dd28 553f 1083 a13d 8efa 363f 3be0 60bd
000000f0: b0ba 8a3f 4ad1 0f3e ef22 263e 07da 8b3e
00000100: 9a45 9f3d b1a8 b1bc d630 1b3e 2338 1dbf
00000110: 0ce3 89be 5825 ad3e 8968 953e f0ce 8f3d
00000120: 4eb8 543d 37ce 53bd 40c6 643e 47ab b13e
00000130: a55b 1b3e 3bda b53d d81c 283d e1b3 94be
00000140: 73c0 6bbe 2e2c 40be 81c5 c0be 41e7 30be
00000150: a220 403c 9001 873e ec8a c03e 142e cdbd
00000160: 8eb2 02bf ca1e b23e 71a6 85be 00b6 953d
00000170: f450 4dbf e539 91be eabb 0d3e b602 713e
00000180: 6490 2a3d b19d a33c 00d2 603e c9b2 14bf
00000190: 66f9 4bbe ea28 d93d 2def 1a3e 277e 273e
000001a0: 7ac4 29bd 95f2 b8be 9a1b 123e 89ad 223e
000001b0: 06ef 1d3e 4626 c53d 444c 413e 6e12 06bf
000001c0: 98ba 13bf 7e72 d83a 1207 14bf 60c2 6bbe
000001d0: 3abd 993d a411 643e 867a ac3e 902c a8be
000001e0: 6458 0abf ce05 f33d 6bb6 03bf ae36 7e3d
000001f0: 9e51 86bf 474d 73be c7d1 303e 06ad 2c3e
00000200: 2cf5 1f3b e08d 9d3d 678b 79bd e729 e4bd
00000210: d7ed 893d e34b 563c 15db e83c 16f2 0f3d
00000220: 9532 f93c fd6e 25bd 2af2 833d 4d60 6bbd
00000230: 39d0 823c e7eb dd3d 85cc 39be 1cde 02bd
00000240: fc94 24be e584 1bbe 0b7d 9b3d 157e 823d
00000250: 6b1a ccbc e3de 1bbe c090 a9bd fda7 9d3d
00000260: 841c b63d e2d0 c9bd ff10 99bd 4651 0dbe
00000270: 9c30 1bbd b2ae 123c 6318 5ebd 692d 8c3d
00000280: 98e9 503a 5471 c53d 7ca4 8b3e bf3c 95be
00000290: 2c0c 08bd 075a 6d3e 63ee 8f3e bf65 4c3e
000002a0: 5a4d e73d c2e9 0b3c 1c5c a43e 3088 123e
000002b0: caa4 a13e 332c 3a3c 14c2 3a3e 48eb 57be
000002c0: 57a3 a1bd a09d b6be fea4 72be 9994 0ebe
000002d0: deca 223e f88b 713e 0bc4 d93e b182 8ebd
000002e0: 00e0 b7be ace8 8e3e e0b9 d1be 0810 5dbc
000002f0: f6fa dcbe f6ef 2abd 9b2b 97bd f138 8abd
00000300: ca0b 89bd 7d02 9dbd 8506 483c b3b0 013c
00000310: ef52 b6bd 18d2 3e3c ecfc b83d b86a c2bd
00000320: 87b6 afbd f03c acbd f99a e83d ea74 3abd
00000330: d020 a7bd a272 e8bd db65 28be da13 cbbc
00000340: f3a5 183e c5c8 833d 7675 f3bd 7cc0 193d
00000350: cabd 04be 6a49 2d3d 2d77 3abe 4b77 09be
00000360: 6e74 2ebd 7220 d1bc cdfc b13d ff7b 173c
00000370: c047 603c cad9 103d f319 d23d e75d 12bc
00000380: 282b 17bf 3f9e a0be d4ef 28bf 99ff 883f
00000390: 0147 66be f735 1f3d e486 543d dbac 58be
000003a0: 4f21 4c3f 97a0 193e 9e94 923e cdfa 633e
000003b0: 6b2a eb3d 7d59 99bf 7377 1ebf 8309 79be
000003c0: 206c 623f 6651 afbe 71be 313f 5353 85bf
000003d0: f19c 06be 140f a6bd b2a9 f63d 7162 e83e
000003e0: 7a4d d63b f3e6 02bf ff2f d4bc 00cc 1c3f
000003f0: 6d14 0bbe 645a 593d a31c c6be ed56 48be

layers.2.bias f4 [32]
0.2025886 -0.15320474 0.20128323 0.15560243 -0.022558942 0.138076 0.007662132 -0.20170175
-0.04598788 -0.14472134 0.27290702 0.27116403 0.36085054 -0.07022984 0.11013666 0.108132794
0.36484173 -0.17506137 0.21747197 0.29495245 0.16956173 0.11377931 0.3048218 0.1901775
0.10290392 -0.07703014 0.12311066 0.29962364 0.28412107 0.000117017895 0.1306289 0.17135468
00000000: 6373 4f3e b4e1 1cbe 311d 4e3e 3e56 1f3e
00000010: 88cd b8bc cc63 0d3e 9f12 fb3b e78a 4ebe
00000020: ca5d 3cbd d531 14be 78ba 8b3e 03d6 8a3e
00000030: 67c1 b83e aad4 8fbd 548f e13d ba74 dd3d
00000040: 89cc ba3e 4a43 33be f9b0 5e3e 0204 973e
00000050: 97a1 2d3e 2005 e93d 9a11 9c3e e4bd 423e
00000060: 4abf d23d fac1 9dbd 7121 fc3d 4568 993e
00000070: 5178 913e 8167 f538 95c3 053e 9a77 2f3e

layers.4.weight f4 [2, 32]
-0.0041959095 -0.8604333 0.42360976 0.36567426 -0.04116933 0.31973046 -0.0028481002 -1.1915317
-0.05844544 -0.061627537 0.5798306 0.4128928 0.3011173 -0.1113851 -0.7203764 0.28990313
0.32263613 -0.12089449 0.36564958 0.48901203 -0.7314629 -0.044593815 0.44274837 0.28135908
0.29626888 -0.08796785 0.4429167 0.39056098 0.2797992 -0.10291293 0.30533424 0.4079496
0.4445712 -1.1860931 0.13753553 0.36972368 0.05150449 0.02642276 -0.02062105 -0.6724628
0.08381659 0.18249637 0.5094857 0.40396497 0.28859806 0.10109364 0.1826875 0.39770776
0.30501327 0.16188133 0.081777155 0.21984188 -0.97764736 0.37056473 0.47060093 0.29071462
0.4722664 0.2538788 0.30561766 0.335068 0.4369256 0.048655987 0.5469799 0.10166986
00000000: d77d 89bb 5b45 5cbf 61e3 d83e a839 bb3e
00000010: 2ca1 28bd b6b3 a33e 31a7 3abb 1c84 98bf
00000020: 7c64 6fbd 286d 7cbd c76f 143f af66 d33e
00000030: 0c2c 9a3e df1d e4bd 966a 38bf 2f6e 943e
00000040: 9030 a53e 8897 f7bd 6c36 bb3e c95f fa3e
00000050: 2741 3bbf 01a8 36bd eaaf e23e 4c0e 903e
00000060: 8eb0 973e 7d28 b4bd fac5 e23e 9cf7 c73e
00000070: d741 8f3e 04c4 d2bd c554 9c3e c5de d03e
00000080: d69e e33e e6d1 97bf 1dd6 0c3e 6c4c bd3e
00000090: 5ff6 523d 8b74 d83c 7aed a8bc 8626 2cbf
000000a0: 08a8 ab3d 54e0 3a3e a86d 023f 7fd4 ce3e
000000b0: 20c3 933e 2f0a cf3d 6f12 3b3e 5aa0 cb3e
000000c0: b32a 9c3e 38c4 253e c87a a73d 3b1e 613e
000000d0: 1947 7abf a9ba bd3e 9bf2 f03e 8cd8 943e
000000e0: e7cc f13e 67fc 813e eb79 9c3e 088e ab3e
000000f0: b6b4 df3e 804b 473d e006 0c3f 4a38 d03d

layers.4.bias f4 [2]
0.08643431 0.25838086
00000000: 7904 b13d 7f4a 843e
