Cart_pole_model.pth (torch, 7063 bytes, 6 tensors)

layers.0.weight f4 [32, 4]
000000 e2 48 da be ad 59 ea be 15 fb 82 bf 35 45 92 3e
       -0.4263373 -0.45771542 -1.0232874 0.28568426
000010 7f 33 70 3e 19 ae b3 bc 10 65 c4 3f 42 0b 62 3e
       0.23457144 -0.021933602 1.5343342 0.22074607
000020 bf 06 2a be 15 ed 40 3e 82 f8 ca 3e 56 ab a0 3e
       -0.16604136 0.1884044 0.3964272 0.3138072
000030 e4 ec b5 3e 12 5f 42 3e 54 f6 c9 3f d7 ac 8b 3e
       0.35532296 0.18981579 1.5778298 0.27280304
000040 cd c4 dc 3d b8 08 0c 3e f4 f7 98 be 96 7e fa 3d
       0.10779724 0.13675201 -0.29876673 0.122311756
000050 be 66 4a 3e af b6 8c 3e ec 6f e3 3f 14 59 ec 3e
       0.19765756 0.27483127 1.7768531 0.4616171
000060 f2 cc 73 3e e3 66 e9 bd e0 56 37 3e fd 68 26 3d
       0.23808649 -0.11396577 0.17904234 0.04062747
000070 c4 b6 d6 3e aa 8b 59 3e e5 ed 1d 3f c6 66 1b 3e
       0.41936314 0.21244684 0.61691123 0.15175924
000080 f4 e8 f5 bd 84 b3 5a 3d 08 27 c1 3e b2 3a 62 3e
       -0.12007323 0.053393856 0.3772509 0.22092703
000090 d9 ab 88 bd 83 59 4c 3d 71 5a 7b bf c6 bd f3 bd
       -0.06673402 0.049890053 -0.9818488 -0.11901431
0000a0 a0 26 cd bc 0a 90 d9 be 0a b7 ce 3f 3c 78 66 3e
       -0.025042832 -0.42492706 1.6149609 0.22506803
0000b0 d8 1c c4 3e fe 42 8c 3e f3 8c 94 3f 23 a5 a2 3e
       0.38303256 0.2739486 1.1605514 0.31766614
0000c0 84 50 81 3d 23 2c 4c bd b7 33 64 bf 7d 96 8b be
       0.06314185 -0.04984678 -0.8914141 -0.2726325
0000d0 cc 97 98 3d 01 f8 3a 3e 8a 63 14 3f 18 51 d3 3a
       0.07450828 0.18258668 0.57964385 0.001612219
0000e0 f0 c3 2c 3f 2e 71 0c 3e db 4b 63 3f ad 70 de 3d
       0.67486477 0.1371505 0.8878762 0.10861335
0000f0 67 c4 f2 be 7f 00 78 be 40 8d c8 3f cd dd 4e 3c
       -0.47415468 -0.24218939 1.5668106 0.012626124
000100 ec c9 3a bf c2 28 7c be a5 4c a6 3e 45 e2 15 bc
       -0.7296436 -0.24624923 0.3248035 -0.009148185
000110 5f a3 95 bd 5a ca 2f be 23 63 91 bf 5c 91 58 be
       -0.07306551 -0.17167035 -1.1358379 -0.211492
000120 a5 84 0d 3d bf 35 0a 3e b3 13 39 3f 44 3f b6 3e
       0.034550328 0.13497065 0.72295684 0.35595143
000130 da 09 c6 3d 57 3c 14 bd 42 50 6e be aa 8a 6d be
       0.09669848 -0.036190357 -0.23272803 -0.23197427
000140 1d 2a c2 bd 92 48 c7 bd 07 92 6e bf 3c ee 92 bd
       -0.09480689 -0.097306386 -0.9319157 -0.07174346
000150 39 e2 0a be a7 ce 4b 3e 0e ec 97 3f f4 0a 92 3e
       -0.1356286 0.1990305 1.1868913 0.28523982
000160 65 63 95 3d 69 5f ea 3d bf 5b 08 3f e7 b5 a2 3e
       0.072943486 0.11443979 0.53264993 0.31779405
000170 ad 70 8f 3e 6f 0f 00 be cf 19 70 bf 83 1c 6d be
       0.28015652 -0.12505887 -0.9378938 -0.23155408
000180 5d c4 ce 3e f6 28 c8 be ee 2d 0b bf 9f 65 27 be
       0.40384188 -0.3909375 -0.5436696 -0.16347359
000190 0c 68 a6 3e b4 b2 ba 3e 1b a7 a7 3f ca 4a a4 3e
       0.32501256 0.36464465 1.3097872 0.3208831
0001a0 85 e8 39 bd 7e 65 e5 3d 21 7d bb 3f 98 6e b4 3e
       -0.045387764 0.11200999 1.4647561 0.35240626
0001b0 c2 e5 1f 3e 0e dc 56 bd cc 67 2e 3f 74 9f 04 bf
       0.1561499 -0.052455954 0.6812713 -0.51805806
0001c0 ad 43 2a 3d 84 c1 10 3b c1 22 0d bf 19 55 68 be
       0.041568447 0.0022088 -0.55131155 -0.22688712
0001d0 ba f9 31 be f7 ff fe 3c ee 8b ef 3e e4 74 7d 3d
       -0.1738042 0.031127913 0.46786445 0.061879054
0001e0 eb 20 bf 3d cc c0 50 3d ab 84 d6 3f 65 f2 77 3e
       0.093324505 0.050965115 1.6759237 0.2421356
0001f0 e4 27 8d 3e 19 6b 10 be 22 d3 2b 3f a2 e1 53 3e
       0.27569497 -0.14103355 0.6711904 0.20691541

layers.0.bias f4 [32]
000000 2f 42 e5 bd 76 f5 81 3f 33 9b 29 3f 93 17 e3 bc
       -0.11194264 1.0153034 0.6625244 -0.027721202
000010 2b 84 2e 3f fc d5 e2 3d 7b 1b 27 3f 3b 4f 0e be
       0.6817042 0.110759705 0.65276307 -0.13897412
000020 95 7b 16 3f 35 89 10 3f 5a 39 5a 3f cb 3c 71 be
       0.5878232 0.5645936 0.8524376 -0.23558347
000030 c8 9b 0f 3f da bd 46 3f 63 dc 1b be 56 99 1e 3f
       0.5609708 0.7763344 -0.1522079 0.6195272
000040 8d 00 0b bf b4 30 f7 3e d9 53 3d 3f 93 fd 2d 3f
       -0.54297715 0.48279345 0.73956066 0.6796505
000050 e8 36 e1 3e 04 f5 1a 3f 75 e1 36 3f 1d cb f8 bd
       0.43987203 0.60530114 0.7143777 -0.12148116
000060 21 bb f9 3e d1 55 23 be 93 4f 2d 3f 92 19 21 3f
       0.4877558 -0.15950705 0.67699546 0.6292964
000070 67 31 15 3f 41 1b 11 3f 08 68 56 3f f4 14 b6 be
       0.58278507 0.5668221 0.8375249 -0.3556286

layers.2.weight f4 [32, 32]
000000 51 98 9f be c2 ee 13 3f d6 97 20 3f 85 89 13 bf
       -0.31170896 0.5778619 0.62731683 -0.57631713
000010 5d 7c d3 3e 1b 05 5e bf ac 35 03 3f 40 da c4 be
       0.4130582 -0.8672654 0.5125377 -0.38447762
000020 71 ac 0d 3f 05 c4 ef 3e 7a 03 05 3e 23 8f 37 bf
       0.5534125 0.4682924 0.12989607 -0.71702784
000030 ff 4f e8 3e 0b 95 e7 3e fe 91 3c bf 79 d8 04 3f
       0.45373532 0.45230898 -0.73660266 0.5189281
000040 46 a0 e1 be 3a 68 e5 3e 1d 03 0d 3f 08 66 11 3f
       -0.4406759 0.4480608 0.55082875 0.5679631
000050 9e de 11 3f 71 b5 14 3f 28 0d fe 3e 2c 86 8c bf
       0.5698031 0.5808936 0.49619412 -1.0978446
000060 bf 7b 1c 3f 70 12 2b bf 36 8d 11 3f 40 ba cc 3e
       0.6112632 -0.6682501 0.56856096 0.39985847
000070 89 6c b8 3e e7 c2 0e 3f b2 48 0f 3f eb 5d f9 be
       0.36020306 0.5576615 0.559703 -0.48704466
000080 89 ef ad 3f 40 ef 7b bd 2c d6 92 be 71 2b f8 3e
       1.3588725 -0.061507463 -0.28679025 0.48470643
000090 62 70 c9 3d 9d fd ee 3e bd aa d7 3d c1 11 d6 3e
       0.098358884 0.46677867 0.105306126 0.4181042
0000a0 97 e9 b6 bd 26 14 95 3e fe 4e a2 bd cf fd 4c 3f
       -0.089312725 0.29116935 -0.07925223 0.8007478
0000b0 ee 9a d3 3e d1 29 13 bd 2e 19 53 3f 0f 6f ed be
       0.4132914 -0.03592855 0.82460296 -0.46373793
0000c0 ee 0b 0d be e2 e1 5d 3e 47 22 db bd 83 d0 89 3e
       -0.13774082 0.21668199 -0.10699897 0.26916894
0000d0 80 22 c9 3e 38 bb b9 be 60 b9 1f be f7 90 e4 3e
       0.39284134 -0.3627565 -0.15598059 0.4464185
0000e0 98 6d c5 3e 8b af 1b 3f 32 72 94 be 12 13 82 3e
       0.38560176 0.6081473 -0.28993374 0.25405174
0000f0 d5 d0 99 3e 94 c0 93 be 11 72 87 be 7e 73 dd bc
       0.3004214 -0.28857863 -0.26454213 -0.02703261
000100 7a 86 9a be c5 f7 02 3f 99 a3 25 3f 24 87 07 bf
       -0.30180722 0.51159316 0.64702755 -0.52940583
000110 03 ae ec 3e 19 d9 56 bf a8 5d 01 3f 06 ee f1 be
       0.4622651 -0.83925015 0.50533533 -0.4725191
000120 9e fd 03 3f 12 bc fe 3e 77 a6 0c 3e 36 70 44 bf
       0.51558864 0.4975286 0.13735376 -0.7673372
000130 f1 e9 f2 3e 06 df 06 3f e8 ab 5c bf 7e 0b 13 3f
       0.47444108 0.52684057 -0.8619981 0.5743941
000140 c5 a6 db be 21 bb 06 3f e0 47 ee 3e cf 14 25 3f
       -0.42900673 0.52629286 0.4653921 0.64484876
000150 6d 15 19 3f 24 9e 15 3f 68 63 12 3f 7e 64 87 bf
       0.5979832 0.5844443 0.5718293 -1.0577543
000160 ca ee 20 3f 13 91 2f bf 79 e3 1c 3f f5 05 bc 3e
       0.62864363 -0.6858074 0.61284596 0.36723295
000170 3b 0d 96 3e 40 3a 0d 3f e4 59 25 3f 48 70 09 bf
       0.2930697 0.5516701 0.6459029 -0.5368695
000180 0d b1 97 be b6 56 0c 3f df 09 15 3f 29 b2 fa be
       -0.29627267 0.5481981 0.5821819 -0.4896405
000190 43 d0 f5 3e b7 34 67 bf c6 e6 0c 3f a5 38 00 bf
       0.48010454 -0.9031481 0.5503963 -0.5008643
0001a0 32 c8 12 3f 50 5d 04 3f fc f4 f9 3d 29 c9 4c bf
       0.57336724 0.51704884 0.1220493 -0.79994446
0001b0 ae 82 fa 3e a3 4d 07 3f fb fe 67 bf 01 8c f7 3e
       0.48927826 0.5285284 -0.90623444 0.48349002
0001c0 6b e4 eb be e9 d1 03 3f ce af ed 3e e3 aa 02 3f
       -0.46072707 0.5149217 0.4642319 0.51042
0001d0 33 94 14 3f 75 4e 1e 3f d0 2d 16 3f 76 0a 91 bf
       0.58038634 0.61838466 0.58663654 -1.1331317
0001e0 00 ac 1d 3f 80 ce 28 bf b1 74 17 3f c5 c1 d6 3e
       0.61590576 -0.65940094 0.5916243 0.4194471
0001f0 80 1f a1 3e 7f fe fa 3e 2f ea 1b 3f f2 af 05 bf
       0.31469345 0.4902229 0.6090421 -0.52221596
000200 c8 63 a6 bc 65 b2 28 3b 65 45 ed 3b 02 f5 58 bd
       -0.020311251 0.0025741097 0.0072409385 -0.052968033
000210 6e 0c 7e bd f6 7a 70 3c 1a fa 5c bc 96 fd 8e bd
       -0.062023573 0.014677754 -0.013487363 -0.069819614
000220 cd a0 86 bd f4 03 98 bc 6d 60 53 bd b8 f9 bb ba
       -0.06573639 -0.018556572 -0.05160563 -0.001434139
000230 8e 52 28 bc 52 67 36 bd f8 3b 1d 3d 68 b8 4d 3d
       -0.010273589 -0.044532128 0.03838727 0.05022469
000240 2c 14 a2 bc 2f 32 07 3d fe 0d 78 bd 5e 98 d1 bb
       -0.01978501 0.033006843 -0.06056022 -0.0063963374
000250 84 00 a2 3b 52 e1 3d bd f7 19 26 3c c5 09 7b bb
       0.004943909 -0.04635746 0.010138026 -0.0038305384
000260 b1 50 a5 bc 09 85 b4 bc 5f 5b 14 ba 8e e5 bf bc
       -0.020180078 -0.022036092 -0.00056593673 -0.02342489
000270 1a b1 2d 3d 12 60 1c bd e7 8c 55 3d 8e 79 27 bc
       0.042405225 -0.038177557 0.052136328 -0.010221852
000280 76 3b e5 bf ed 52 07 3e f5 25 41 3d 05 6e 85 3b
       -1.7908771 0.13215227 0.04715534 0.0040719532
000290 3c 16 a4 bd ef 45 89 be ca 83 8f bc 69 c4 32 be
       -0.08012053 -0.26811168 -0.017518897 -0.17457737
0002a0 9c 9b ee 3d 0a 50 4c bf 7a 0a 95 3e 3d 27 79 3d
       0.11650774 -0.7980963 0.29109555 0.060828436
0002b0 38 4f 8e bf 31 4f 83 3d 55 53 12 be 9a f4 82 3e
       -1.1117926 0.06411589 -0.14289601 0.2557724
0002c0 1f 2a b8 3e 70 88 9d bf c6 f4 27 3d f5 33 a2 be
       0.35969636 -1.2307262 0.04100492 -0.31680265
0002d0 03 9e 11 c0 20 6a 65 3e 0b 38 ae 3d 4f c7 a4 be
       -2.2752693 0.22403765 0.08506783 -0.3218331
0002e0 30 3b 53 bf c2 84 0c be b1 a1 45 3e 97 6a 19 be
       -0.8251219 -0.13722518 0.19299962 -0.14982067
0002f0 53 04 f4 be c8 6c 7c 3d a9 cd 3c 3e 96 20 10 3e
       -0.4765955 0.06162718 0.18437828 0.1407493
000300 e8 1a b1 be f4 9b 13 3f 15 1b 12 3f 6e 19 0c bf
       -0.3459084 0.5765984 0.57072574 -0.547263
000310 4d dd fe 3e 9a 8e 56 bf d6 0c f6 3e 7e 01 e4 be
       0.49778214 -0.8381134 0.48056668 -0.44532388
000320 67 c3 13 3f 9d dc 0c 3f 36 d7 5e 3e 70 ac 3e bf
       0.57720035 0.5502413 0.21761784 -0.7448187
000330 4b d7 e6 3e 91 3e f5 3e 96 e9 53 bf 3b 4a 00 3f
       0.4508613 0.47899297 -0.827783 0.50113267
000340 49 d3 d9 be d9 94 08 3f 0f b3 02 3f 54 cc 19 3f
       -0.4254401 0.53352123 0.5105447 0.60077405
000350 c9 b9 14 3f f6 ea 08 3f 2b 32 01 3f b4 30 85 bf
       0.58095986 0.5348352 0.50467175 -1.0405488
000360 9a 2e 0c 3f 20 9f 16 bf c4 db 1c 3f bc 7c aa 3e
       0.5475861 -0.58836555 0.61272836 0.3329829
000370 03 01 8c 3e 81 bb 06 3f c4 b6 24 3f d1 da 05 bf
       0.27344522 0.5262986 0.6434138 -0.5228701
000380 eb f8 b9 be 05 fb fc 3e b4 c1 1f 3f 8c 31 10 bf
       -0.36322722 0.49410263 0.6240494 -0.563256
000390 d5 49 f5 3e b9 9a 69 bf b6 ef 09 3f c1 67 df be
       0.47907892 -0.91251713 0.53881395 -0.43633845
0003a0 ef 6d f6 3e 56 72 16 3f 7f 74 27 3e 53 b6 3d bf
       0.48130748 0.5876821 0.16353033 -0.7410633
0003b0 33 2c ff 3e 71 61 01 3f 2c 9c 5b bf e3 c6 07 3f
       0.4983841 0.5053931 -0.85785174 0.5303785
0003c0 23 4e df be fc b3 f2 3e d6 10 f5 3e 70 37 1c 3f
       -0.436143 0.47402942 0.47864407 0.6102209
0003d0 16 39 07 3f 14 04 1f 3f 21 b3 11 3f f0 8d 82 bf
       0.5282148 0.621156 0.56913954 -1.0199566
0003e0 6f f5 13 3f f2 7b 24 bf 9c df 09 3f 86 9c b9 3e
       0.57796377 -0.64251626 0.53856826 0.3625223
0003f0 91 ff 86 3e 36 af fd 3e c6 34 28 3f f0 8e 02 bf
       0.26366857 0.49547738 0.65705526 -0.50999355

layers.2.bias f4 [32]
000000 aa b0 29 3f 38 8e 32 bd fa 55 0d 3f 55 e8 12 3f
       0.6628519 -0.04359266 0.55209315 0.5738576
000010 3b e4 39 3d 33 d3 9c 3c 64 aa 20 3f f3 07 16 3f
       0.045383673 0.019143676 0.62759995 0.5860588
000020 01 f5 3c be 93 48 3b bd 2b ac 39 3d 0b 2e 48 3d
       -0.18452837 -0.04572351 0.045330208 0.048872035
000030 e9 ab 1d 3f 9a aa 22 3f 27 b6 1c 3f 8b bb 1b 3f
       0.6159044 0.6354157 0.6121544 0.6083304
000040 6f 06 20 3f 04 3f b5 3c bc e7 2b 3f a9 56 fa 3c
       0.62509817 0.022124775 0.67150474 0.0305589
000050 3d e9 1a bd 44 b0 09 3e 1e 5c 5c be f9 d6 1a 3f
       -0.03782009 0.13446146 -0.21519515 0.6048427
000060 72 7b e1 3a 9c a0 bf 3e 09 74 28 3f b2 0e 11 3f
       0.0017202927 0.37427223 0.65802056 0.5666305
000070 99 1e 8a bd 84 9e 14 3f 51 9d 93 3e 87 89 20 3f
       -0.06744117 0.58054376 0.2883096 0.6270985

layers.4.weight f4 [2, 32]
000000 40 ad 35 3f 48 fc 5b be 74 cb 31 3f 8e f6 2c 3f
       0.70967484 -0.21482956 0.6945107 0.6756371
000010 b1 61 4d bd 1c 6f de be b3 33 35 3f d7 49 30 3f
       -0.050141994 -0.43444145 0.7078201 0.6886267
000020 33 59 24 bf 68 6b a1 bf ec a3 30 3a c7 35 2a bd
       -0.6419861 -1.2610903 0.00067382935 -0.041555192
000030 b7 d1 34 3f 30 5c 26 3f c6 2e 38 3f 51 d8 30 3f
       0.706325 0.64984417 0.7194637 0.6908007
000040 91 cd 26 3f 8a d7 d2 bf 74 c3 31 3f e1 f6 ad bf
       0.6515742 -1.6472027 0.6943886 -1.3590966
000050 f1 fa 5f 3c e5 32 c0 bf 16 48 d7 bf bc 44 37 3f
       0.013670669 -1.5015532 -1.6818874 0.71589255
000060 d9 4c 0c bf fd 65 9a bf 89 a5 29 3f 58 b4 28 3f
       -0.5480476 -1.2062374 0.6626821 0.6590018
000070 51 97 d6 38 2f 83 28 3f cc 2d 85 bf f7 c1 2f 3f
       0.000102325 0.6582517 -1.0404601 0.6865534
000080 50 d3 30 3f 67 36 51 bf bb 01 2e 3f d6 fe 2f 3f
       0.6907244 -0.81723636 0.6797139 0.68748224
000090 60 d2 f8 3c 1d 5c d4 bf 6b c5 2f 3f ac 2f 31 3f
       0.030373752 -1.6590611 0.6866061 0.69213367
0000a0 d6 43 74 bd 8b 5a 22 bf d4 3f c3 bc a6 fc c1 bc
       -0.059635006 -0.6341941 -0.023834147 -0.023680042
0000b0 f4 d4 3f 3f 9d d0 36 3f 31 eb 1f 3f 78 ef 2d 3f
       0.74934316 0.7141207 0.6246825 0.67943525
0000c0 2b 5a 33 3f 97 e1 0b c0 86 8f 03 3f 38 b4 9a bf
       0.7005946 -2.185644 0.51390874 -1.2086248
0000d0 6f 51 f2 3b b8 15 ff be 81 7d 07 c0 d9 db 3a 3f
       0.0073949615 -0.49821258 -2.1170352 0.7299171
0000e0 46 17 eb bf 12 8c ae bf d2 f6 24 3f 4a f8 3e 3f
       -1.8366477 -1.3636496 0.6443912 0.7459761
0000f0 ea 18 db 3c 40 e2 39 3f 22 1d 5f bf 8a 29 28 3f
       0.026745278 0.72610855 -0.8715383 0.65688384

layers.4.bias f4 [2]
000000 b4 f5 0f 3f e6 19 d5 3e
       0.5623429 0.4162132
